NengoDL/mnist_params.npz (npz, 805035 bytes, 4 tensors)

arr_0 f4 [10, 21632]
000000 d6 23 a0 3b 7f 14 94 3b 4a e3 84 3c 5b 13 d8 3a
       0.0048870845 0.004519045 0.016221661 0.001648526
000010 a8 c1 7f 3c 81 f5 85 3c 39 4a a7 3b b8 cc 4a bc
       0.015610136 0.016352417 0.0051052836 -0.01237791
000020 19 52 6d bc 51 19 53 3c 19 fd cd bc cb 0f 59 bc
       -0.014484906 0.012884454 -0.0251451 -0.013248394
000030 36 69 9b bb be e9 0d bc 77 8c 31 3c ec ef a0 3c
       -0.0047427667 -0.0086616855 0.010836712 0.019645654
000040 58 2f 63 bb 0c ff 1b 3c 08 a9 4d bb 89 f9 1a bc
       -0.003466567 0.009521257 -0.0031381268 -0.009458908
000050 74 dc 3b 3c 6c 77 7f 3c b0 d1 1c 3c 79 31 2e bc
       0.011466134 0.015592437 0.009571478 -0.010631912
000060 91 91 0a bc ba 68 14 bc 82 48 01 3c 46 a2 85 bc
       -0.008457557 -0.009058172 0.007890822 -0.01631273
000070 f3 ee 98 3c 1d 68 71 bc 72 65 9b 3b 42 49 8f bb
       0.018668627 -0.014734295 0.004742318 -0.0043727467
000080 9b d1 34 3c d4 20 a3 bb 76 a0 ae bb 1d 77 3f 3c
       0.011036302 -0.0049782787 -0.005329187 0.011686114
000090 5e 8b c0 ba 72 8e 7c b9 73 42 02 bb 01 c8 d5 bb
       -0.0014689972 -0.00024085658 -0.0019876033 -0.0065240865
0000a0 00 26 76 3c 4f 7c 09 bb b1 04 fe bc 7e 59 cb bb
       0.015023708 -0.0020978635 -0.031008096 -0.0062057367
0000b0 fa ca 24 3c 63 3a 8d 3b dc 25 d8 bb d7 96 5f bb
       0.010058159 0.0043099388 -0.00659631 -0.0034117007
0000c0 67 6e 2a bc 8b 46 ae 3b b4 1d bb 3b ab 67 5a 3c
       -0.0104022985 0.005318468 0.005710328 0.01333038
0000d0 c0 1c 65 3c 19 29 ef 3b 8c 04 a8 bb 35 74 a1 3c
       0.013983905 0.0072986004 -0.005127495 0.019708732
0000e0 12 18 dd 3b 91 7b 25 3c 04 3d 05 bc 20 ff e7 bb
       0.006747254 0.010100261 -0.008132223 -0.007079974
0000f0 e2 f2 39 3b 10 af 63 3c ee 84 c5 ba 00 da bc b8
       0.002837353 0.013896719 -0.0015069523 -9.005144e-05
000100 43 02 c4 3b e0 83 a0 bc d0 33 d7 3b b9 07 07 bc
       0.005981715 -0.019594133 0.006567456 -0.008241587
000110 49 ea 7e bc 93 ee 1e bc 9a 0a f5 3a c7 df 3f 3c
       -0.015558788 -0.009700435 0.0018695176 0.0117110675
000120 94 be 3d bc 14 f9 60 3c 2e 87 02 bd e1 df 1a 3c
       -0.011581082 0.01373126 -0.0318672 0.009452791
000130 af d4 5f 3c bf 90 9d 3c cf 07 b8 bb c7 34 1f bb
       0.013661548 0.01923406 -0.005616165 -0.0024292932
000140 ac 0b ef 3b 73 d9 73 3c b7 68 ab 3c 5f 3e c5 bb
       0.0072950926 0.014883387 0.020923955 -0.006019398
000150 dd 57 a1 3b 3b 97 1f bc e8 50 a6 3c 29 c4 46 ba
       0.004923804 -0.009740646 0.020302251 -0.0007582331
000160 b6 ca a6 ba d7 d5 86 3c 0f 5b 31 bc c3 a8 50 bb
       -0.0012725207 0.016459389 -0.010824933 -0.003183887
000170 ef 9e 6d 3c 12 0e 9b bc 57 19 8e 3c e4 0c 3e 3c
       0.014503225 -0.018927608 0.017346067 0.011599753
000180 48 71 2d 3c 77 d2 ee bc 0b 91 ab 3b 03 02 b3 bb
       0.01058609 -0.029153092 0.0052357963 -0.0054628863
000190 44 59 3a 3c ec 76 54 bb 1d 92 50 3c 05 4c c7 3b
       0.011373822 -0.0032419516 0.012730149 0.0060820603
0001a0 32 4a 80 bc 19 e2 f6 3a 1f 5d 06 bd 20 4b e7 38
       -0.01566038 0.0018835693 -0.03280365 0.000110289315
0001b0 90 e3 30 3c 73 99 81 3c dc 5b 89 bc 68 bf 4e 3c
       0.010796443 0.01582024 -0.016767435 0.012618877
0001c0 ac 72 08 3c b5 43 3d bc 26 f6 30 ba c6 f9 18 bc
       0.008328121 -0.011551787 -0.0006750546 -0.009336894
0001d0 7e 1b 92 bb 85 76 05 3c e8 b6 3a bc 8d 38 8a bc
       -0.0044588437 0.008145933 -0.011396147 -0.016872669
0001e0 60 2e cf 3c f2 84 ab 3c 9d 42 a1 bb b5 8c 82 b8
       0.025290668 0.020937417 -0.004921271 -6.225092e-05
0001f0 fe 06 cf 3c a8 a8 1a 3a 13 00 8e 3c 30 81 e5 3a
       0.025271889 0.00058997655 0.01733402 0.0017509814
000200 ee e9 80 bc 47 51 57 3b e9 87 fb bb 5d 3e 42 bc
       -0.015736546 0.0032854842 -0.007676114 -0.011855689
000210 3e 2a 23 3c 54 c9 64 bc 8e 54 87 3b 17 ad b6 3b
       0.009958802 -0.013964016 0.0041299528 0.005574833
000220 9f ae 01 bc 39 6d 5e bc a0 3a 98 bc 92 3b b3 3b
       -0.007915168 -0.013575845 -0.018582642 0.005469748
000230 b2 54 59 bc 66 90 8a bb b4 94 cc 3b 67 eb ae ba
       -0.013264822 -0.0042286394 0.0062433127 -0.0013345302
000240 50 08 a3 3b 74 54 d3 3b 1a bd c0 bb 98 92 df bb
       0.004975356 0.0064492766 -0.0058819177 -0.0068228953
000250 e5 9f 20 bb e1 d3 38 bb c5 eb c4 bc 92 c5 68 bc
       -0.0024509367 -0.0028202462 -0.024038205 -0.014207261
000260 72 e5 f5 3c ab b0 63 3c ba a2 92 3c a2 09 2e 3a
       0.030016635 0.013897101 0.01789986 0.00066390086
000270 c0 f2 c5 3c e5 d3 b9 3c 0e 55 2b 3a a8 62 21 ba
       0.024163604 0.022684047 0.00065358065 -0.00061563635
000280 c2 5c 38 3c 49 ed 32 3a 7e f1 f5 3b 38 7a 4d 3c
       0.011252584 0.00068255194 0.0075055948 0.012541346
000290 29 56 4a 3c c8 06 2e bc 21 72 79 3c 6f 66 1f 3c
       0.012349644 -0.010621734 0.015224964 0.009729012
0002a0 60 a3 67 3c f1 44 42 bc 43 0a 3e bd d6 10 77 3b
       0.014138073 -0.011857257 -0.046396505 0.0037699244
0002b0 60 1d 79 3b 54 16 18 3c 91 2f cc bb da f2 ac 3c
       0.0038011894 0.009282667 -0.0062312563 0.021111894
0002c0 b0 6f 04 3c d7 3c f5 3a 13 e6 52 3c 0a 13 89 3c
       0.008083269 0.0018710148 0.012872237 0.016732711
0002d0 80 65 87 3b 6e f3 3e 3c 37 0a 37 3c f1 35 ba bc
       0.004131973 0.011654718 0.011171869 -0.0227308
0002e0 a7 f9 eb bb 37 fa eb bb 62 5b 24 bc 44 5b 9d bc
       -0.0072013917 -0.007201459 -0.010031553 -0.019208558
0002f0 47 9e 11 3d 65 1c 3a bc 4a e1 73 bc 6b 7a 1c b5
       0.035551336 -0.011359309 -0.014885256 -5.829267e-07
000300 f7 49 54 bc 34 ab 0a bd 3e 12 88 bc c2 2b eb bc
       -0.012957088 -0.03385468 -0.016610261 -0.028707389
000310 5a 12 ce ba f5 d9 f9 bb 77 15 60 3c da 51 0f b8
       -0.0015722022 -0.0076248595 0.013676993 -3.4170087e-05
000320 bd ec d0 bb dc 59 c8 3b 65 0d 05 bd 33 a7 ec 3b
       -0.0063758777 0.0061142277 -0.032483477 0.00722208
000330 cd d7 05 bb 59 f3 15 3b 2b f2 c2 bc 45 0a ec b9
       -0.0020422817 0.0022880642 -0.023797115 -0.0004502108
000340 60 d0 c9 ba f4 5d e6 3c f8 9f 47 3c 7a 83 02 bd
       -0.0015397184 0.028120972 0.012184136 -0.031863667
000350 94 31 23 3c a3 5a 11 bd d6 b3 f2 bc e0 2c 59 bc
       0.009960551 -0.03548683 -0.029626768 -0.013255328
000360 e9 ef b5 3c bc c0 6f 3a 00 cf 43 3c 77 3b 87 3c
       0.022209125 0.0009145846 0.011951208 0.016507847
000370 6e c3 a5 3c f2 0e 8c 3b 2c d4 2d bb ac 30 eb 3a
       0.02023479 0.0042742426 -0.002652417 0.0017943582
000380 7d 4a 3b bd 63 aa aa bc 2e 98 69 bc 52 8f 90 bc
       -0.045725334 -0.0208332 -0.014257474 -0.017646465
000390 ce 14 a9 bb 85 42 00 bb 77 32 12 3a 07 67 1a 3c
       -0.005159951 -0.0019570899 0.0005576978 0.009423978
0003a0 91 f6 10 bb 7e 12 63 bc 34 12 11 bd ac 55 4a 3b
       -0.0022119621 -0.013859389 -0.03541775 0.0030873818
0003b0 aa 15 fe 3b 46 17 f3 3a ad ea 7e bc b8 48 43 ba
       0.0077540474 0.0018546365 -0.015558881 -0.00074494956
0003c0 58 ae 50 bb 3d 75 48 3c 0e 70 52 3c c7 6d 40 bd
       -0.0031842198 0.012234983 0.012844099 -0.04697969
0003d0 ff 1c 89 b9 4f 32 3c bd 2c 24 0b bd d9 7c e5 bc
       -0.0002615228 -0.045946416 -0.033970043 -0.028013634
0003e0 24 de dc ba 6c a1 f7 bc e2 1c 7d 3b 93 e1 d9 bc
       -0.0016850871 -0.03022834 0.0038621952 -0.02659682
0003f0 c5 b2 4e bc f0 48 04 bc e8 70 b9 b8 0a ea 04 3c
       -0.012615864 -0.00807403 -8.842518e-05 0.00811244

arr_1 f4 [3, 3, 1, 32]
000000 74 d3 9e bd 50 56 c3 bd df 24 03 bd 87 bc 0f bd
       -0.07755175 -0.09537947 -0.032017585 -0.035091903
000010 ca b9 60 bd 1c 0b 99 39 08 a9 05 3c 02 cd 11 3d
       -0.054864682 0.0002919071 0.008157976 0.0355959
000020 67 a2 9f bc 3b 62 10 be 1d d6 9a 3d a2 a8 76 bc
       -0.01948662 -0.14099972 0.0756037 -0.015054854
000030 b9 c1 3c bc 71 7b e5 bc d7 e9 82 bc 61 d8 b0 bb
       -0.011520796 -0.028012963 -0.015980644 -0.005396888
000040 70 94 46 3d 58 37 84 bc 73 d9 9d bb 6a 3f 59 bd
       0.048481405 -0.016139671 -0.0048171817 -0.053038992
000050 30 25 aa bd 10 2a 9a bd fc 38 1c 3c 17 83 3c 3c
       -0.08307874 -0.07527554 0.0095350705 0.011505864
000060 c5 ac 24 3c e9 99 13 3b 1a fd d0 bc 24 48 23 be
       0.010050957 0.0022522158 -0.025511313 -0.15945488
000070 5e 34 c4 bd c5 bd 6d bc a6 8f d0 bd 75 dd d3 bd
       -0.09580301 -0.014510577 -0.10183649 -0.10344974
000080 9f 5a ae bd e9 17 95 be 81 a1 24 be 1f 7d 85 3d
       -0.08513378 -0.29119805 -0.16077234 0.065180056
000090 24 f1 4d bc 60 08 6f 3d c9 e5 8c 3d 76 96 12 be
       -0.012569699 0.058357596 0.068797655 -0.14315209
0000a0 6f e9 3d be 05 83 9d bc c8 c3 af bd 2a df 11 bd
       -0.18546079 -0.019227514 -0.08582264 -0.035613216
0000b0 2f 27 c5 3d 50 ce b6 bd 18 d6 fd bd bf 3e d8 bc
       0.09626614 -0.0892607 -0.12394351 -0.026397107
0000c0 f3 bb 60 be 9d dc 85 3b db 80 dc bc 2a 0f c5 bd
       -0.21946697 0.004085137 -0.026916912 -0.09622033
0000d0 cd e3 88 3d 25 3c a3 bd 82 06 9f 3b dd bc ca bd
       0.066840746 -0.07970456 0.0048530707 -0.09899304
0000e0 29 15 fe bd 9f 0c 3c bd 5b 00 9b bd 56 ad 38 be
       -0.1240638 -0.045910474 -0.07568427 -0.18034872
0000f0 c4 c4 29 3e 1d 7f 62 3c a1 9b 9e bd 67 dd 44 bc
       0.16578966 0.0138242515 -0.077445276 -0.012015677
000100 bd 5b 15 bc 9b 22 82 3d a7 86 03 bb 61 69 94 bd
       -0.00911611 0.06354257 -0.0020069273 -0.07246662
000110 e9 a2 fe bd 7f c0 cc bd dd 43 e5 bc 56 ce 5c bc
       -0.124334164 -0.09997653 -0.027986461 -0.013476929
000120 52 42 3f ba f7 81 d7 b6 b8 b8 50 be 0f 3e c5 bd
       -0.0007295954 -6.422629e-06 -0.20382965 -0.09630977
000130 26 52 b1 bd 43 7d bc bc 09 f2 a5 3d 6b 30 aa bd
       -0.08658247 -0.023008948 0.08102805 -0.08310016
000140 2e 14 0f bc 05 6c af bc 51 d1 6d 3c e2 96 bd 3c
       -0.008732839 -0.021413812 0.014515237 0.023143236
000150 52 21 91 3c 4c 81 a6 bd 63 1d 03 3d 90 13 42 be
       0.017716084 -0.0813013 0.032010447 -0.18952775
000160 e6 f0 b1 3c b0 2c 6e be fe 56 f0 3c 64 a3 85 3a
       0.021721315 -0.23259234 0.029338356 0.0010195789
000170 69 1d c4 bd f3 76 b6 bd 4d ae d0 3b cc 7f b7 3c
       -0.09575922 -0.089094065 0.0063684345 0.022399805
000180 bc 4e 14 bd 0a 59 b8 bc a2 a5 a1 39 67 cf 21 be
       -0.0362079 -0.022503395 0.0003083172 -0.15801774
000190 76 80 10 bd 43 6f 32 be 09 20 af bd f5 c6 c1 3d
       -0.03527876 -0.17425255 -0.08551032 0.09461776
0001a0 3e 43 54 bd c7 34 e0 bc 14 0e c3 bd 5d ec 10 39
       -0.05182194 -0.027368916 -0.095241696 0.00013820962
0001b0 6f c3 ae bb 53 c6 c3 bc 0d 43 14 be e1 9f 0c 3a
       -0.005333356 -0.02389828 -0.14478703 0.00053644
0001c0 43 5b 8c be 1c 17 02 be 8a b3 7d bd 64 5f 2a be
       -0.27413377 -0.12704128 -0.0619388 -0.16637951
0001d0 25 80 bf 3d 1d 7b f4 bd e9 5d 27 bd 9d 59 b0 3c
       0.093506135 -0.119375445 -0.040861044 0.021527106
0001e0 21 5e b4 bd df 07 f1 bd 4b aa 36 be 35 ac 97 bd
       -0.08807016 -0.117690794 -0.17838399 -0.07405893
0001f0 b6 3d 38 bd 99 ca 05 3d 90 19 f1 3d 8c 3f 33 3d
       -0.044980727 0.032663915 0.11772454 0.043761775
000200 0c 3a c5 3c 4e 76 39 3c 37 7c bb bd 7c 89 ed 3d
       0.02407553 0.01131971 -0.091545515 0.11598489
000210 7b 71 28 bd c3 b5 09 be 9a 8e fd 3c 65 6b b0 bd
       -0.04112385 -0.13448243 0.030951787 -0.08614234
000220 f5 64 ad bd 88 9a bb bd be f2 8f bc 60 7b 85 b6
       -0.08466522 -0.09160334 -0.017571803 -3.9780716e-06
000230 10 ff 34 3d 3c d2 14 3d af be 40 3d 39 5e 12 be
       0.04418856 0.036333308 0.04705685 -0.14293756
000240 23 9f ae bd 49 60 d6 bd 91 fb e9 bd c2 8d 20 bc
       -0.08526447 -0.10467584 -0.114249356 -0.009799423
000250 dc c3 08 be fa 58 02 3d 10 53 40 bd e1 87 94 bd
       -0.13355964 0.031823136 -0.046954215 -0.07252479
000260 eb 6a 67 bd bb b6 f9 bc 6c 99 ed bc 1d e3 af 3d
       -0.05649845 -0.03048264 -0.029003821 0.0858824
000270 d7 a7 22 be 9d dd db bd 36 8b 8f bc 9c 52 70 3d
       -0.15884338 -0.10735629 -0.017522436 0.058672532
000280 8b 9f c9 bd f6 08 a1 be b4 fd 42 be 57 a3 18 bd
       -0.098448835 -0.3145215 -0.19042093 -0.037265148
000290 c0 f2 20 bd 40 49 ae 3d 37 5c 8a 3c c3 fd 16 bd
       -0.039294004 0.08510065 0.016889675 -0.0368631
0002a0 a5 3e d5 bb 80 1b dd bb b5 6c cc 3d 8a c0 a8 bc
       -0.006507712 -0.006747663 0.09981672 -0.020599622
0002b0 7a c8 8b bd 1b 49 9e bd 7d b4 cc bd 68 10 08 3e
       -0.06825347 -0.077287875 -0.09995363 0.13287508
0002c0 15 43 2a 3c 7c ea 3f 3c 44 ae 4a bd 14 b0 62 3d
       0.01039197 0.01171362 -0.0494826 0.055343702
0002d0 b5 f5 be bd cf 96 75 3d 40 9e 3a be ba f7 14 bd
       -0.09324209 0.059958275 -0.1822443 -0.036369063
0002e0 09 71 99 bc b2 bb 0b bc 74 78 b4 3d 02 8d 66 3d
       -0.018730657 -0.008528637 0.08812037 0.05628682
0002f0 45 17 cb bd 48 54 36 be c3 40 01 3c 34 32 87 3b
       -0.09916548 -0.17805588 0.007888976 0.0041258577
000300 77 9a c5 bd b2 78 44 3d f6 81 e6 bc d3 93 b1 bd
       -0.096486025 0.047966667 -0.028138142 -0.08670773
000310 cc 67 e5 ba ec 51 60 bc 27 aa aa bd 4c 66 f2 bd
       -0.0017502247 -0.013691407 -0.08333235 -0.11835918
000320 81 f3 24 bc de c4 98 bd 62 3d e0 bc 30 05 11 be
       -0.0100678215 -0.074594244 -0.02737302 -0.14162135
000330 2a 03 f9 bd 91 63 08 3d e8 93 ba bd d5 82 e1 bc
       -0.121588066 0.03329808 -0.09110242 -0.027528206
000340 0c 45 90 3b c3 8c f0 bd 2e d2 cb bd 62 4b cc bc
       0.0044027623 -0.11745598 -0.09952198 -0.02493829
000350 bc ca 59 be 5b 39 98 bd 70 30 9e bd 78 6f 31 be
       -0.21268743 -0.07432815 -0.077240825 -0.17327678
000360 98 76 ab 3d 69 8b 03 bc 89 8f ad 3c 6b b7 d7 3a
       0.08372229 -0.008028843 0.021186607 0.0016457861
000370 5e 55 0b 3d 2e c3 fd 3c 1b 8a b8 bd bb 20 72 bb
       0.03401696 0.030976858 -0.090107165 -0.0036945778
000380 f9 87 4a 3d e0 c4 a1 be 18 f8 29 3a 74 12 84 be
       0.04944608 -0.31595516 0.0006483807 -0.2579533
000390 2e 5c 46 bd 41 8a fd 3c 76 bf 56 3d d9 65 13 be
       -0.048427753 0.030949714 0.052428685 -0.1439432
0003a0 68 d8 a2 ba de 30 0e bc cc e7 4c bd c0 60 d7 bc
       -0.0012424113 -0.008678643 -0.050025746 -0.026291251
0003b0 db 7b e1 bd 15 e7 0d 3d 6c 68 1d be a9 89 5d 3d
       -0.11009952 0.034644205 -0.15371865 0.05408636
0003c0 59 6f aa 3c 45 03 f2 3d e0 3c 17 3e 1c 01 a6 bd
       0.020805048 0.1181703 0.14769316 -0.0810568
0003d0 ab 66 f4 bc 7a 32 36 bd 5b ab 89 3d 26 e8 86 ba
       -0.029834112 -0.044481732 0.067221366 -0.0010292574
0003e0 c8 08 9d bd 3a 6a d4 3d 49 97 f4 bd 01 2e 5a 3d
       -0.076676905 0.103718236 -0.11942918 0.05326653
0003f0 f8 be ad 3d 92 07 df 3c 8c 51 73 bd e2 c4 d7 bb
       0.0848369 0.02722529 -0.05940394 -0.0065847496

arr_2 f4 [32, 1]
000000 c9 bb 4e bd 0b 76 0a bb b2 de 2b be 9a 24 35 bd
       -0.050472055 -0.0021127488 -0.1678417 -0.04422436
000010 1b 02 13 be 39 df d6 3b e1 1d a3 3b 60 44 d8 bd
       -0.14356272 0.006557372 0.004977927 -0.105599165
000020 1c 72 ea bd 00 c4 c8 bd 2c 0f 86 3b 70 56 99 bd
       -0.11447546 -0.09803009 0.004091164 -0.0748719
000030 a3 7b 10 3c 2d e6 e6 ba 79 56 c0 bb 08 44 b6 bb
       0.00881854 -0.0017616205 -0.0058696833 -0.005562309
000040 dc bf b2 bd 23 46 49 bc c0 5f 01 bc f6 fa f0 bd
       -0.087280005 -0.012284788 -0.007896364 -0.11766617
000050 63 19 8b ba 80 e7 fa bb 00 e8 bb bc eb 4e 7d bd
       -0.0010612424 -0.0076569915 -0.022937775 -0.06184284
000060 99 2c d7 bc 9c 0d 1d bb 7f f9 8f 3c 2b 97 59 bc
       -0.026266383 -0.002396441 0.017575024 -0.01328067
000070 1f 09 df bb ea 06 36 be dc 09 1f bc da e8 85 bc
       -0.0068065072 -0.17776075 -0.0097069405 -0.016346384

arr_3 f4 [10, 1]
000000 7c 60 51 bd 2a f3 f4 ba 20 7e 25 bd f4 6a 97 3c
       -0.051117405 -0.0018688191 -0.040403485 0.018483616
000010 2d 10 24 3d 6a 1b 74 3d b1 ae d3 bb 6c 8f 20 bc
       0.04005449 0.059596457 -0.006460034 -0.009799819
000020 e8 0b 9d ba f2 c6 a1 3c
       -0.0011981698 0.019748185
